snake_agent_2.pth (torch, 67979 bytes, 8 tensors)

conv1.weight f4 [32, 4, 5, 5]
0	0xbe19adf4	-0.15007764
1	0xbdc0cb82	-0.09413816
2	0xbddb2b23	-0.10701587
3	0x3d9182c0	0.07105017
4	0x3d2d4703	0.04230405
5	0xbc88080f	-0.016605405
6	0x3d86e7c9	0.06587178
7	0x3bb7428e	0.0055926507
8	0x3e1563a2	0.14588788
9	0x3d0bca8b	0.034128707
10	0xbd94b9d4	-0.072620064
11	0x3d05e6c0	0.032690763
12	0x3d2c759b	0.042104345
13	0x3d8065f2	0.062694445
14	0xbd4dbde4	-0.050229922
15	0xbdfbcaec	-0.12294564
16	0x3d89a30c	0.06720552
17	0x3d8121d9	0.06305284
18	0x3d709ad2	0.0587414
19	0x3dfc829a	0.12329598
20	0xbd8ec87a	-0.069718316
21	0x3db63ee4	0.08898714
22	0xbdcc29be	-0.09968899
23	0xbc8a6106	-0.016891968
24	0xbc9c17e0	-0.019054353
25	0x3d7c0df0	0.06153673
26	0x3d002005	0.031280536
27	0xbb8f2e3f	-0.0043695266
28	0x3d8888f4	0.06666747
29	0x3ce09336	0.027413946
30	0x3d502440	0.05081582
31	0x3d49ee82	0.049299724
32	0x3d308e5b	0.04310451
33	0x3e05f92f	0.13083337
34	0x3ce21df6	0.027602177
35	0xbcdac63f	-0.02670586
36	0xbb9fb8e1	-0.004874334
37	0xbc29d174	-0.010364879
38	0x3d0bb6d3	0.0341099
39	0x3d67a68b	0.056555312
40	0xbd9fc8f2	-0.07801999
41	0xbd174dd1	-0.036939446
42	0x3c9bd9b7	0.019024713
43	0x3c7266da	0.01479503
44	0x3d3bd478	0.045856923
45	0xbce57e46	-0.028014313
46	0x3d939215	0.07205597
47	0xbcaf6ba7	-0.021413637
48	0xbd424546	-0.047429346
49	0xbdc24e76	-0.094876215
50	0x3e0f1bb6	0.13975415
51	0x3e2e5f80	0.17028618
52	0xbe008732	-0.12551573
53	0xbe93408e	-0.2876019
54	0xbea5b74e	-0.32366413
55	0xbde3fbee	-0.11132036
56	0xbd150055	-0.03637727
57	0xbe2295f6	-0.15877518
58	0xbea5733c	-0.3231448
59	0xbe513895	-0.2043174
60	0xbb8a36b4	-0.004217947
61	0x3bff84ae	0.007797799
62	0x3d580343	0.052737486
63	0x3c9b77fb	0.01897811
64	0xbe515c13	-0.2044528
65	0x3b047ee8	0.0020217244
66	0xbdd3986b	-0.10331806
67	0xba8b2276	-0.0010615129
68	0x3c2accf4	0.010424841
69	0xbe5d50cf	-0.21612857
70	0x3e489e80	0.19591713
71	0x3cdad0c0	0.026710868
72	0x3dd7e303	0.10541346
73	0xbc9b796b	-0.018978795
74	0xbe416658	-0.18886697
75	0x3e4b83e0	0.19874525
76	0xbc385ee1	-0.01125309
77	0x3e681e21	0.22667743
78	0x3d473fba	0.04864476
79	0xbe5181ec	-0.20459718
80	0xbc3e75a1	-0.011624725
81	0xbda5018c	-0.08056936
82	0xbd37a51d	-0.0448352
83	0x398dac9f	0.00027022228
84	0x3c435b25	0.011923586
85	0xbdb5b055	-0.08871523
86	0xbe9ab8f9	-0.30219248
87	0xbe216a83	-0.15763287
88	0xbe164dff	-0.1467819
89	0x3c2107f7	0.009828559
90	0xbb92a1d3	-0.0044748574
91	0xbe427b06	-0.18992242
92	0xbd886add	-0.066610076
93	0xbde5b04d	-0.11215267
94	0x3d6cbb00	0.057795525
95	0x3d5e21d0	0.054231465
96	0x3d028b80	0.03187132
97	0x3da3357e	0.07969187
98	0x3d2d3514	0.042286947
99	0x3d03f443	0.032215368
100	0xbd481e31	-0.048856918
101	0x3c039b16	0.008032581
102	0x3dc02291	0.09381593
103	0xbd6f9237	-0.05848905
104	0xbcca1759	-0.024669336
105	0x3d5c05d5	0.0537165
106	0x3d71e9fa	0.059061028
107	0x3db22a61	0.086994894
108	0xbcb8fa38	-0.022580251
109	0x3d20b390	0.039233744
110	0xbc923a3f	-0.01785004
111	0x3cc77e8e	0.024352338
112	0xbce2d1df	-0.027687965
113	0x3cf738b1	0.0301784
114	0xbd78aabe	-0.060709707
115	0xbcad40a0	-0.02114898
116	0x3df16b4a	0.11788042
117	0x3dde3f69	0.10851938
118	0xbcd262bb	-0.025681844
119	0x3dc5d8d9	0.09660501
120	0x3cb77e20	0.022399008
121	0x3dfdfa66	0.12401275
122	0x3dbbd663	0.091717504
123	0x39df959d	0.00042645345
124	0xbc6368d6	-0.013879975
125	0xbda6a2f1	-0.08136547
126	0xbd11e765	-0.035621066
127	0x3de72070	0.11285484
128	0x3d155bdb	0.036464553
129	0xbdd3129a	-0.10306282
130	0x3d246963	0.040139567
131	0x3c02cc39	0.007983261
132	0xbd5c6114	-0.05380352
133	0x3bc483ba	0.0059971483
134	0x3bb18462	0.0054173926
135	0x3c2ecc7b	0.010668869
136	0xbd3994b1	-0.04530782
137	0xbdf54b87	-0.11977296
138	0x3d54bc81	0.051937584
139	0xbd7e5423	-0.062091958
140	0x3a9e4a89	0.0012076657
141	0x3e09fc22	0.13475087
142	0x3da7df27	0.0819686
143	0x3d550e32	0.05201549
144	0x3d9df5b0	0.07712877
145	0x3da3c662	0.07996823
146	0x3e1c08d6	0.15237746
147	0x3de207ab	0.11036619
148	0x3dbde341	0.09271861
149	0x3ddaa5e7	0.106761746
150	0xbcf6718d	-0.030083442
151	0x3e04c7f1	0.12966897
152	0x3d2892ef	0.04115575
153	0x3d5da560	0.054112792
154	0xbd986cf2	-0.07442655
155	0xbe008bcd	-0.1255333
156	0xbc9152ae	-0.01773962
157	0x3dd7432b	0.10510858
158	0x3d293e81	0.041319374
159	0xbe3b671c	-0.18301052
160	0xbd94170f	-0.072309606
161	0xbcab5307	-0.020913614
162	0xbdbd9c0f	-0.092582814
163	0x3cc50c17	0.024053616
164	0xbd0301d6	-0.031984173
165	0x3d21a560	0.039464355
166	0xbde3eb7d	-0.111289
167	0xbe99e185	-0.3005487
168	0xbd9b5170	-0.07583892
169	0xbced2649	-0.02894892
170	0x3dd58d2d	0.10427318
171	0x3d743d19	0.05962858
172	0xbe023ab3	-0.12717704
173	0x3d0b6023	0.03402723
174	0xbd6463ba	-0.05575917
175	0x3e0abdfe	0.13549039
176	0x3dac7aa4	0.08421829
177	0xbe04cccb	-0.12968747
178	0x3dd0ebf0	0.102012515
179	0x3e5f546d	0.2180955
180	0xbdeba3be	-0.11505841
181	0x3d0ba10a	0.034089126
182	0xbda8cf28	-0.08242637
183	0xbe0f86f0	-0.14016318
184	0x3dcba010	0.09942639
185	0x3e03235f	0.12806462
186	0xbd34399f	-0.044000264
187	0x3d71992f	0.058983978
188	0x3dccb5cc	0.099956125
189	0x3dd0dd06	0.10198407
190	0xbea5ea7d	-0.32405463
191	0xbe4c1c79	-0.19932736
192	0x3d6db18c	0.05803065
193	0x3daa25b3	0.08307972
194	0xbe20ce70	-0.1570375
195	0xbea69952	-0.3253885
196	0x3db5776c	0.088606685
197	0x3e390ed8	0.18072069
198	0x3d9b3817	0.07579058
199	0xbe03c4e9	-0.12868084
200	0x3dbe179f	0.09281849
201	0xbcfab792	-0.030605111
202	0xbd5b2f83	-0.053512108
203	0x3d989d8a	0.07451923
204	0xbd6decb3	-0.058087062
205	0x3dcd6040	0.10028124
206	0xba872dec	-0.0010313368
207	0x3c01ff35	0.007934381
208	0x3c9d5de6	0.019209813
209	0x3d459bcb	0.04824428
210	0x3c80bebe	0.015715953
211	0xbd284a62	-0.041086562
212	0xbcd77c7e	-0.02630448
213	0x3db362ac	0.087590545
214	0x3d5eb1e3	0.054368865
215	0xbd94bdda	-0.07262774
216	0x3d94fc8a	0.072747305
217	0xbc9b9e50	-0.018996388
218	0xbd3eadff	-0.046552654
219	0xbde1ae3b	-0.1101956
220	0x3d418064	0.047241583
221	0x3de42276	0.111393854
222	0x3da1dc09	0.079032965
223	0x3d2a1f64	0.041533843
224	0x3d991700	0.0747509
225	0x3d67b9ba	0.056573607
226	0xbd058d32	-0.032605357
227	0xbd5a6767	-0.05332127
228	0x3d9d3573	0.0767621
229	0xbd465865	-0.048424143
230	0x3dc1f68a	0.09470852
231	0xbb4c0673	-0.0031131774
232	0x3c8de852	0.017322693
233	0x3d14ad66	0.036298178
234	0x3d3676fa	0.04454706
235	0x3d0aa66a	0.03385011
236	0xbd53e5f5	-0.051732976
237	0xbc09933e	-0.008396922
238	0x3db38fb6	0.08767645
239	0x3d7c0431	0.061527435
240	0xbdb51ea4	-0.08843735
241	0x3d952759	0.072828956
242	0xbc5118a5	-0.012762223
243	0xbd0c26ad	-0.03421657
244	0xbdeddaf0	-0.11614025
245	0x3d40c379	0.047061417
246	0x3dfafcba	0.12255235
247	0x3d74da7b	0.05977867
248	0x3cbc17d1	0.022960575
249	0x3d207f55	0.039183933
250	0x3d68ce4c	0.056837365
251	0x3e0a0bb7	0.13481031
252	0xbcdd8c94	-0.027044572
253	0xbd0de46f	-0.03464168
254	0xbe08eae1	-0.13370849
255	0xbdd5cff7	-0.10440057

conv1.bias f4 [32]
0	0xbdbf4a7f	-0.09340381
1	0xbca862e7	-0.020554973
2	0xbcd8103e	-0.026374932
3	0xbd60f90c	-0.05492501
4	0x3d908606	0.07056813
5	0x3b098398	0.0020982977
6	0x3cc6697e	0.024220224
7	0x3db2801f	0.087158434
8	0x3c915da0	0.01774484
9	0xbce76b61	-0.028249444
10	0x3d13fc9f	0.03612959
11	0x3d3bad7e	0.045819752
12	0x3d727d75	0.059201676
13	0xbd33bbab	-0.043880146
14	0x3d196d13	0.037457537
15	0x3db2903f	0.08718919
16	0xbd668d49	-0.056287084
17	0x3d0fa3d9	0.035068367
18	0x3d91ad04	0.07113078
19	0x3db7c52f	0.08973157
20	0xbc1c6d65	-0.009547566
21	0x3d87a670	0.06623542
22	0x3dda0021	0.10644556
23	0x3d6a0498	0.057133287
24	0x3d478b95	0.0487171
25	0x3c9637ad	0.018337095
26	0xbcaba630	-0.020953268
27	0x3dbb90de	0.091584906
28	0xbda9183f	-0.08256578
29	0x3d86d7b9	0.065841146
30	0xbd99038a	-0.07471378
31	0xbd9582be	-0.07300328

dense1.weight f4 [64, 128]
0	0x3d852926	0.06501989
1	0x3cc220a4	0.023697205
2	0xbde4fe76	-0.11181347
3	0xbd06fefc	-0.032958016
4	0x3d166468	0.03671685
5	0xbcfa4bf2	-0.030553792
6	0xbd6531eb	-0.05595581
7	0xbdc58135	-0.09643785
8	0xbd24f917	-0.040276613
9	0xbe02340e	-0.1271517
10	0x3e393536	0.18086705
11	0x3e09d7f5	0.13461287
12	0xbd27610e	-0.040864043
13	0xbcf5d5f3	-0.030009245
14	0x3d0d0e89	0.03443769
15	0x3e09e1f8	0.13465106
16	0xbd7514a1	-0.059834126
17	0xbddbe91a	-0.1073782
18	0x3df8784f	0.12132322
19	0xbd4f2e9a	-0.050581552
20	0xbe0ed50a	-0.13948455
21	0xbded1464	-0.11576155
22	0xbd759618	-0.059957594
23	0xbd4a1efa	-0.049345948
24	0xbda32f10	-0.07967961
25	0xbe10878f	-0.14114211
26	0x3c9e98ca	0.019359965
27	0x3e04c5c2	0.12966064
28	0x3d549939	0.051903937
29	0xbd055cbd	-0.032559145
30	0xbb931666	-0.004488754
31	0xbdf91332	-0.12161864
32	0x3d5d8fec	0.054092333
33	0xbc3930c2	-0.011303129
34	0x3d384c99	0.044994924
35	0x3d0c7fe1	0.034301642
36	0xbd1e9029	-0.0387117
37	0x3d1182d6	0.035525165
38	0x3c154942	0.009111704
39	0xbc7802a8	-0.015137352
40	0xba07383b	-0.00051582203
41	0x3de7d7fb	0.11320492
42	0x3e10aa3b	0.14127438
43	0xbaede7ef	-0.0018150787
44	0xbdbfb5dd	-0.093608595
45	0x3ce9d50e	0.028543975
46	0xbd8f4b6d	-0.06996808
47	0x3d520ead	0.051283527
48	0xbce87028	-0.028373793
49	0xbc368fd9	-0.011142694
50	0xbd3e2409	-0.046421085
51	0xbd9666a3	-0.07343795
52	0x3d4ecf6b	0.050490778
53	0xbd2605cc	-0.040532872
54	0x3da35742	0.079756275
55	0x3d8c7f8c	0.06860265
56	0x3df17242	0.11789371
57	0x3c1eb7e2	0.009687396
58	0x3de836a5	0.113385476
59	0x3da50f60	0.08059573
60	0x3da705bd	0.08155391
61	0x3de8d776	0.11369221
62	0xbcc478f1	-0.02398345
63	0x3e20c1df	0.15698956
64	0xbdfbbad7	-0.12291496
65	0xbe1ba078	-0.15197933
66	0x3d40f80c	0.047111556
67	0x3d9575ed	0.07297883
68	0x3d206a2a	0.039163746
69	0xbd41c6f8	-0.047308892
70	0xb91f95e8	-0.00015219266
71	0x3d944d63	0.07241323
72	0xbd8db8fd	-0.06920049
73	0xbd6319ae	-0.055444412
74	0xbb17c873	-0.0023160249
75	0xbbd87400	-0.006605625
76	0xbba2bcb1	-0.0049663414
77	0x3c954d96	0.018225472
78	0xbd083d36	-0.0332615
79	0x3cec80fe	0.028870102
80	0xbd688b0f	-0.05677324
81	0x3a646062	0.0008711872
82	0x3be91bb5	0.0071138986
83	0xbbb12d83	-0.0054070367
84	0x3d55bcbe	0.05218195
85	0xbd304cf6	-0.043042146
86	0x3d5e3b2e	0.054255657
87	0x3d839b19	0.06426067
88	0xbb18aaf1	-0.0023295248
89	0x3d811206	0.06302266
90	0x3b4ac0cf	0.0030937677
91	0xbd47ef59	-0.048812244
92	0x3d975c4c	0.07390651
93	0x3d4f031c	0.050540075
94	0x3d77745f	0.060413714
95	0x3d38c7cb	0.045112412
96	0x3d6ed72a	0.058310665
97	0x3c2b8269	0.010468104
98	0xbd834a82	-0.064106956
99	0xbd389617	-0.04506501
100	0x3dd7d196	0.10538022
101	0x3e3bcb41	0.18339254
102	0xbda4a1da	-0.08038683
103	0xbd6c604c	-0.057709023
104	0xbe27d198	-0.16388547
105	0x3d372dec	0.04472153
106	0xbcab61fb	-0.020920744
107	0x3cc077f0	0.02349469
108	0xbe0d9eff	-0.13830183
109	0xbd73c7e2	-0.059516795
110	0x3a2fb523	0.00067027117
111	0x3bb8b406	0.005636695
112	0x3ddc15e3	0.10746362
113	0x3dad385d	0.08458016
114	0xbd85b04c	-0.065277666
115	0xbd8d6993	-0.06904902
116	0xbe25ea2c	-0.1620261
117	0xbdb5e28d	-0.08881102
118	0x3e230630	0.15920329
119	0x3de86b48	0.11348587
120	0x3c6b3f5d	0.014358369
121	0xbdab5f30	-0.08367765
122	0xbe6fbaf9	-0.23411168
123	0xbec5fc30	-0.38668966
124	0x3e11b098	0.14227521
125	0xbcf3c3b2	-0.0297564
126	0x3d99f9d6	0.075183555
127	0x3d8b7321	0.068090685
128	0x3d22c5c8	0.0397394
129	0x3c9b521c	0.018960051
130	0xbdd1fbe6	-0.10253124
131	0xbdc38ba1	-0.095481165
132	0x3cecd643	0.028910762
133	0x3d8f9f82	0.070128456
134	0xbc441893	-0.01196875
135	0xbca4e8b2	-0.020130489
136	0x3c9ee841	0.019397857
137	0x3c77b842	0.015119614
138	0x3e2e1933	0.170018
139	0x3e8c3f88	0.2739222
140	0xbc853f0a	-0.01626541
141	0x3db5e971	0.08882416
142	0xbd05ce57	-0.032667484
143	0x3e3ea760	0.18618536
144	0x3d52ac74	0.051433995
145	0x3df42697	0.11921423
146	0xbb69cfde	-0.0035676877
147	0x3c894420	0.016756117
148	0x3d9e0ada	0.077169135
149	0x3dcf7f92	0.10131754
150	0xbd996cc4	-0.074914485
151	0x3e6a6062	0.2288833
152	0xbe367d34	-0.17821199
153	0xbdac02e1	-0.083989866
154	0xbcbcffb1	-0.023071142
155	0xbe0ff496	-0.14058146
156	0x3b7ec7df	0.0038876457
157	0x3dd9a470	0.10627067
158	0x3d5939bd	0.05303358
159	0x3d8557ae	0.06510864
160	0x3e0ba72f	0.13637994
161	0x3d9d0591	0.07667077
162	0x3c2f10cd	0.010685158
163	0x3db4413d	0.08801506
164	0xbd373433	-0.044727515
165	0x3dc7b27e	0.097508416
166	0x3da01544	0.07816556
167	0x3c7d65bc	0.01546615
168	0x3e19c087	0.1501485
169	0xbcb6a47c	-0.02229523
170	0x3dda542b	0.10660585
171	0xbde83349	-0.11337907
172	0x3c50479a	0.012712384
173	0x3d015519	0.031575296
174	0xbd95b059	-0.07309026
175	0x3da18cd2	0.078881875
176	0xbd44db28	-0.048060566
177	0xbca01fa3	-0.019546336
178	0xbd046db8	-0.0323312
179	0x3b61e973	0.0034471422
180	0xbce880af	-0.028381674
181	0xbc653c69	-0.013991454
182	0xbd2a3886	-0.04155781
183	0x3e121a67	0.14267884
184	0xbcaa981b	-0.020824483
185	0x3cd0e8a5	0.025501559
186	0x3d442fc4	0.047897115
187	0x3d8461ec	0.064639896
188	0x3de418cf	0.11137544
189	0xbc8f3fe1	-0.017486515
190	0xbd8a0336	-0.06738894
191	0xbd07bc0b	-0.033138316
192	0x3c737236	0.014858773
193	0x3d6007af	0.054694828
194	0xbc9653dc	-0.018350534
195	0x3d4555c4	0.048177496
196	0x3d9d7f21	0.076902635
197	0x3c32ca32	0.010912465
198	0x3d903cb6	0.0704283
199	0x3e050ff3	0.12994365
200	0xbced4521	-0.028963627
201	0x3ddd9445	0.10819296
202	0xbc219564	-0.009862278
203	0xbd428258	-0.047487587
204	0x3d9b16b4	0.0757269
205	0xbd6e3038	-0.058151454
206	0x3d353af6	0.044245683
207	0xbc4a8317	-0.012360356
208	0xbd0e6190	-0.03476101
209	0x3c2add18	0.010428689
210	0x3c5c9708	0.013463743
211	0x3cea2c16	0.028585475
212	0xbd437835	-0.04772206
213	0xbd3f9d07	-0.046780612
214	0x3e2d14cb	0.16902463
215	0xbcef4cfb	-0.029211512
216	0x3d8de366	0.069281384
217	0xbda28bd5	-0.07936827
218	0x3dc05318	0.09390849
219	0xbd465753	-0.048423123
220	0x3cafc97b	0.021458378
221	0x3cb49fbb	0.022048822
222	0x3be9716d	0.007124117
223	0x3d9ede89	0.07757289
224	0xbc6c4310	-0.014420286
225	0xbd5a48f7	-0.05329224
226	0x3dd84a3a	0.105610326
227	0xbd876282	-0.06610586
228	0xbdef51d8	-0.11685532
229	0xbc9406ac	-0.018069588
230	0x3c14e858	0.009088598
231	0x3da7fdfc	0.082027406
232	0xbdd89099	-0.10574455
233	0x3cfef47e	0.031122442
234	0xbd95a9df	-0.07307791
235	0x3e0854da	0.13313618
236	0xbd9b1150	-0.075716615
237	0x3d96f0eb	0.0737017
238	0xbe11ac41	-0.14225866
239	0xbd58e724	-0.052954808
240	0x3d5a3374	0.053271726
241	0x3e30d158	0.17267358
242	0x3dffc18e	0.124880895
243	0x3c641eee	0.01392339
244	0x3d04fcf9	0.032467816
245	0xbc917d48	-0.017759934
246	0xbbdff7a1	-0.0068349396
247	0x3c18e449	0.009331771
248	0xbbbdaa91	-0.0057881554
249	0x3d39ae21	0.045332078
250	0x3c6f853e	0.01461917
251	0xbbd64a6a	-0.0065396326
252	0x3e71a2ae	0.23597214
253	0x3e50abbf	0.20378016
254	0x3e6a7e7a	0.2289981
255	0x3e3fba0e	0.18723318

dense1.bias f4 [64]
0	0x3d644580	0.055730343
1	0x3dd08ddc	0.101833075
2	0x3d0f2117	0.034943666
3	0x3d8ddf88	0.06927401
4	0x3d1e826d	0.038698602
5	0xbd3232a1	-0.043505315
6	0xbd3f5bc0	-0.04671836
7	0x3cc9bcbc	0.024626128
8	0x3dd81e93	0.105527066
9	0xbd4cc2f1	-0.049990598
10	0x3d2ac499	0.041691396
11	0x3d8776b8	0.06614441
12	0xbd950877	-0.07277005
13	0xbd1cb79c	-0.03826104
14	0x3cc5ae1d	0.024130875
15	0x3c390f2a	0.011295119
16	0x3d342537	0.043980803
17	0xbc1fddc2	-0.009757461
18	0xbdaa7199	-0.08322448
19	0x3d3914a7	0.04518571
20	0x3d0b9803	0.034080517
21	0xbce92fd5	-0.02846519
22	0xbcd8f90d	-0.026485944
23	0x3cb31eaf	0.021865217
24	0x3c552bee	0.013010962
25	0xbce0c6b2	-0.027438495
26	0x3d27f4bc	0.04100488
27	0x3ca017c5	0.019542584
28	0xbdb3d610	-0.087810636
29	0x3d6dc228	0.05804649
30	0xbd54634c	-0.05185251
31	0x3bc163d4	0.005901793
32	0xbd079507	-0.033101108
33	0xbd9be011	-0.07611097
34	0x3d4daa94	0.050211504
35	0xbd3632b9	-0.044481967
36	0xbd835536	-0.06412737
37	0x3c9ba594	0.018999852
38	0xbce54b13	-0.0279899
39	0x3d05ebc3	0.032695543
40	0xbc13488c	-0.0089894645
41	0x3d8f4aa9	0.06996662
42	0x3d351441	0.04420877
43	0x3cbc499f	0.022984324
44	0xbb98db4f	-0.0046648155
45	0x3bd097fd	0.0063657747
46	0xbc2d6f21	-0.010585577
47	0xbd3f15bf	-0.046651598
48	0xb98eccfa	-0.0002723707
49	0xbcdce131	-0.026962848
50	0xbad9064a	-0.001655766
51	0x3db15bd0	0.0866009
52	0x3d9e54ad	0.077309944
53	0x3da988b6	0.08278029
54	0xbb921f81	-0.004459322
55	0xbd6f9938	-0.05849573
56	0xbd64b02a	-0.055832066
57	0xbbbbe9bd	-0.005734651
58	0x3d7abd82	0.061215885
59	0x3cf54bd3	0.029943382
60	0x3d22968a	0.039694346
61	0x3c90340f	0.017602948
62	0xbd439746	-0.047751687
63	0x3d0795b8	0.033101767

dense2.weight f4 [64, 70]
0	0x3e0ed12c	0.1394698
1	0x3d82c174	0.063845545
2	0x3e2fac1a	0.17155495
3	0x3e1ac977	0.15115915
4	0x3e01f713	0.12691908
5	0x3b9ad34c	0.0047248956
6	0xbe22c3ad	-0.15894957
7	0xbd952a22	-0.07283427
8	0xbd4f054a	-0.050542153
9	0xbda5bb1a	-0.080923274
10	0x3dc44885	0.095841445
11	0xbd1da1f4	-0.03848453
12	0x3dbb83f8	0.091560304
13	0xbc8d07ed	-0.017215693
14	0xbdc81862	-0.09770276
15	0x3d857ebe	0.06518315
16	0xbe602726	-0.21889934
17	0x3d3f7498	0.04674205
18	0x3e645550	0.22298169
19	0x3e84b841	0.25921825
20	0x3dcd9d40	0.10039759
21	0x3e041754	0.12899524
22	0xbe20ec5c	-0.15715164
23	0x3da13112	0.078706875
24	0x3d178aa8	0.036997467
25	0xbd601266	-0.054705046
26	0xbdc973b4	-0.09836522
27	0x3e18f313	0.14936475
28	0xbd6f14c3	-0.05836941
29	0xbac0443e	-0.0014668775
30	0x3e5e1625	0.21688135
31	0x3e1b3467	0.15156709
32	0xbd006fb4	-0.03135653
33	0x3d495a40	0.049158335
34	0x3dd34df8	0.10317606
35	0xbddd029d	-0.10791514
36	0x3e87108e	0.26379818
37	0x3dae5f17	0.08514231
38	0xbcb8a432	-0.022539232
39	0xbe09f7ee	-0.13473484
40	0x3e8a7299	0.27040556
41	0x3b746bd0	0.0037295707
42	0xbe1db158	-0.15399683
43	0x3e71c162	0.23608926
44	0x3d50641b	0.050876718
45	0x3d806566	0.0626934
46	0x3e7ffbfd	0.2499847
47	0x3d92795c	0.07152054
48	0xbe7643af	-0.24049257
49	0x3c31b9ec	0.01084755
50	0x3e553fa1	0.20825054
51	0x3d82ef5a	0.06393309
52	0xbe0fc02f	-0.14038156
53	0x3daede96	0.08538549
54	0x3df405eb	0.11915191
55	0x3d4279d4	0.047479466
56	0x3e0a5089	0.13507284
57	0x3dbf5291	0.0934192
58	0x3e6488af	0.22317766
59	0xbdab948c	-0.083779424
60	0xbce0ff62	-0.027465526
61	0x3d48473e	0.048896067
62	0x3e473a83	0.19455914
63	0xbd8b1f6c	-0.067931026
64	0x3d4c9529	0.049946938
65	0xbd27a159	-0.040925357
66	0xbd5cc0dc	-0.053894863
67	0x3e04fa53	0.12986116
68	0x3cb3b36e	0.021936145
69	0x3da8b538	0.0823769
70	0xbdb4c89e	-0.08827327
71	0x3d1abafd	0.037775982
72	0xbe8b4e63	-0.27208242
73	0xbc448bc2	-0.0119962115
74	0x3e4f5c6d	0.20250101
75	0x3e2b9d3a	0.16759196
76	0x3e53a388	0.20667851
77	0x3bc54f25	0.0060213977
78	0x3e433eca	0.19066921
79	0x3e28a185	0.16467865
80	0xbdad5d5d	-0.08465073
81	0x3d8afdd4	0.06786695
82	0x3df43b84	0.11925414
83	0x3dc8cb08	0.0980435
84	0x3e3e3241	0.18573858
85	0x3dafb134	0.08578721
86	0x3e73e250	0.238168
87	0xbcf8e678	-0.030383334
88	0xbba612c2	-0.005068154
89	0xbe559715	-0.20858414
90	0xbd4f3836	-0.050590716
91	0xbe322a06	-0.17398843
92	0x3d0fbf04	0.035094276
93	0xbe48f4ab	-0.19624583
94	0xbca95c05	-0.020673761
95	0x3e4cfbe7	0.20017968
96	0x3e6fed68	0.23430407
97	0xbe598bcc	-0.21244735
98	0x3d8d8d7f	0.06911754
99	0xbdcaceae	-0.09902702
100	0xbe151c4e	-0.14561579
101	0xbd85ef38	-0.06539768
102	0xbb37c865	-0.0028043028
103	0x3e0c514c	0.13702887
104	0xbe256059	-0.16150035
105	0x3e23af32	0.159848
106	0xbd4c8f2e	-0.049941234
107	0x3e2e84ad	0.170428
108	0xbce449ba	-0.027867187
109	0x3dadb4f5	0.084817804
110	0xbe5d77e5	-0.21627767
111	0xbdbc70b4	-0.09201184
112	0x3e6ff7c9	0.23434366
113	0xbd7d97c2	-0.061912306
114	0x3df0b4aa	0.11753209
115	0x3dfe00e1	0.124025114
116	0xbe576721	-0.21035434
117	0x3d4c2469	0.04983941
118	0x3eb44f34	0.35216677
119	0xbe2254ad	-0.15852614
120	0xbe42318e	-0.18964216
121	0x3e21dbcb	0.158065
122	0x3dff4911	0.12465108
123	0x3dc48716	0.09596078
124	0x3e3618f4	0.17782956
125	0xbdb304a3	-0.08741119
126	0x3cf67a28	0.030087546
127	0x3e22022e	0.15821144
128	0xbe808b56	-0.25106305
129	0xbd87cd74	-0.06630984
130	0xbd63fb79	-0.055659745
131	0x3ccc3911	0.024929555
132	0xbe59a435	-0.21254046
133	0x3df17425	0.11789731
134	0x3c03251f	0.008004456
135	0xbe12c966	-0.1433464
136	0x3d21727c	0.03941582
137	0xbe1de29c	-0.15418476
138	0xbd7ccc4a	-0.061718263
139	0x3d1e100d	0.038589526
140	0x3e36a5cd	0.17836685
141	0x3dbf1297	0.093297176
142	0xbdfdfbfc	-0.12401578
143	0x3e0c0026	0.13671932
144	0x3e9e8483	0.30960473
145	0x3dea22f6	0.114324495
146	0xbcadd25f	-0.021218477
147	0x3d89d310	0.0672971
148	0xbc85cebe	-0.016333934
149	0xbd0e60ac	-0.034760162
150	0x3d33b84c	0.04387693
151	0x3c59f119	0.013302111
152	0x3d5e5d38	0.05428812
153	0xbe585625	-0.21126612
154	0xbe1cb7e8	-0.1530453
155	0xbc9d1164	-0.019173332
156	0x3c10141e	0.008793859
157	0x3d8a072d	0.0673965
158	0x3c8fe3b4	0.017564632
159	0xbdd4cae9	-0.103902645
160	0x3e23908e	0.15973112
161	0xbe756e98	-0.2396797
162	0xbe4850b7	-0.1956204
163	0xbe48e807	-0.19619761
164	0xbe6ac755	-0.22927602
165	0xbdc2ae7f	-0.09505939
166	0xbe624087	-0.22094928
167	0xbde2f328	-0.110815346
168	0x3d5944ab	0.053044003
169	0x3dc7b459	0.097511955
170	0xbe3ec4df	-0.18629788
171	0xbb4035c0	-0.0029328912
172	0x3e2068c2	0.15664962
173	0x3e847a25	0.2587444
174	0xbd485bc4	-0.04891564
175	0xbd9ebde1	-0.0775106
176	0xbe1ec477	-0.15504633
177	0xbdd34f92	-0.10317911
178	0xbd69fc8d	-0.057125617
179	0x3da1a4ee	0.07892786
180	0x3cd0ed87	0.025503887
181	0xbb06d16f	-0.002057161
182	0x3dc4c4bd	0.09607837
183	0xbe6d4dda	-0.2317423
184	0x3de7af1e	0.11312698
185	0x3e202f14	0.15642959
186	0xbdbf2b08	-0.093343794
187	0x3d8da009	0.0691529
188	0x3e9cd036	0.30627602
189	0x3d853699	0.06504554
190	0xbead67cc	-0.33868253
191	0xbcfda193	-0.030960834
192	0x3d0ff042	0.035141237
193	0x3e133996	0.14377436
194	0x3e8e477b	0.2778891
195	0x3c89962f	0.016795246
196	0xbe0bc6f2	-0.1365011
197	0x3e3de82b	0.18545596
198	0xbea889ec	-0.32917726
199	0xbde47a2e	-0.111561164
200	0xbd90faf6	-0.07079117
201	0xbd40d9ce	-0.047082715
202	0xbe7c5fb3	-0.24645881
203	0xbc97a33b	-0.018510452
204	0x3d87ff42	0.066404834
205	0xbe30cc42	-0.17265418
206	0x3ca4c872	0.020115111
207	0x3cbff7bb	0.023433557
208	0xbdf6fca5	-0.12059907
209	0xbd1c2211	-0.038118426
210	0xbde58bab	-0.1120828
211	0xbbdd8450	-0.0067601576
212	0xbd806494	-0.06269184
213	0xbdb6247e	-0.08893679
214	0x3c1fe8a8	0.009760059
215	0xbdd8483e	-0.10560654
216	0x3d8261fb	0.063663445
217	0xbd9c770e	-0.076398954
218	0x3db27fdf	0.08715796
219	0xbde6d084	-0.1127024
220	0xbd353054	-0.044235542
221	0xbc883094	-0.016624726
222	0xbdad0e30	-0.08449972
223	0x3dc828c5	0.09773401
224	0x3db45495	0.08805195
225	0x3d0a508e	0.03376823
226	0x3bea7fd0	0.0071563497
227	0x3c36ac08	0.011149414
228	0xbd2c5726	-0.0420753
229	0xbda5ed98	-0.08101958
230	0x3c18de18	0.009330295
231	0xbbe413a0	-0.0069603473
232	0x3cbde21c	0.023179106
233	0xbd228f46	-0.039687417
234	0xbdd7c6f4	-0.10535994
235	0x3cbf8b54	0.023381867
236	0x3deb5e49	0.11492593
237	0x3dda12c3	0.1064811
238	0x3c2bbc68	0.010481931
239	0x3dc4709f	0.09591793
240	0x3db5a4f7	0.08869355
241	0xbd1146bc	-0.03546785
242	0xbdb66bd8	-0.08907288
243	0x3ddae09b	0.10687371
244	0xbd65cfcc	-0.056106374
245	0xbdd53cd9	-0.104119964
246	0xbdb176bc	-0.08665225
247	0x3d891bff	0.06694793
248	0x3b73fcc0	0.0037229508
249	0x3d308516	0.04309567
250	0xbde0e802	-0.10981752
251	0x3c583ca8	0.013198055
252	0xbd69a063	-0.057037722
253	0x3d3342c6	0.043764852
254	0x3da25319	0.07926006
255	0xbcf9f4c0	-0.030512214

dense2.bias f4 [64]
0	0xbc674bf7	-0.0141172325
1	0x3dd5e3bf	0.1044383
2	0xbc980b8d	-0.018560195
3	0xbded2812	-0.115799084
4	0x3d8823af	0.06647431
5	0xbc0e6d8c	-0.00869311
6	0xbdfaca0b	-0.12245568
7	0x3d7ad7b8	0.06124088
8	0x3a9651de	0.001146849
9	0x3da1c58d	0.07899008
10	0xbd87745a	-0.06613989
11	0x3d5f5dfa	0.054532982
12	0x3e24fb03	0.16111378
13	0x3d83c4e6	0.0643404
14	0x3da6ea35	0.0815014
15	0x3da09d35	0.07842485
16	0x3d6a5247	0.057207372
17	0x3d49b0ce	0.04924088
18	0xbd04b57f	-0.03239965
19	0x3d4fdbaf	0.050746616
20	0xbac8d902	-0.0015323462
21	0x3e0a2988	0.13492405
22	0xbd53fbf3	-0.05175395
23	0x3dc6ebdb	0.097129546
24	0x3d038f23	0.032118928
25	0xbcf46b2c	-0.02983626
26	0xbdec54f5	-0.11539642
27	0xbdfd0572	-0.12354554
28	0xbd1a34f4	-0.037648156
29	0x3d93dc26	0.07219724
30	0xbd1946bb	-0.03742097
31	0xbd8051b0	-0.06265581
32	0x3ce7e4b9	0.028307306
33	0x3e0a9e96	0.13537058
34	0x3c1f8b89	0.009737858
35	0xbd47bf8f	-0.04876667
36	0x3cf491b3	0.029854631
37	0x3bdd275e	0.0067490777
38	0xbc2b7e21	-0.010467083
39	0xbcf1e572	-0.029528353
40	0xbd66038d	-0.05615573
41	0xbd3dec81	-0.046368126
42	0xbc8487cd	-0.016178036
43	0x3c9310ea	0.017952401
44	0xbd8b492d	-0.068010665
45	0x3d41d624	0.04732336
46	0x3dbebd57	0.093134575
47	0xbd7154b6	-0.058918677
48	0xbdc79626	-0.097454354
49	0x3ce505e8	0.027956918
50	0x3d038285	0.032106895
51	0x3d9fc5b4	0.07801381
52	0xbd85e368	-0.06537515
53	0x3dc56df9	0.09640116
54	0xbc53a541	-0.012917818
55	0xbd9cffde	-0.0766599
56	0xbd9d3216	-0.07675569
57	0xbd64fc22	-0.055904515
58	0x3d3aade3	0.045575988
59	0xbcd4fea8	-0.026000336
60	0x3d7fb5dd	0.062429298
61	0x3d9efd95	0.07763211
62	0x3dbbb10a	0.09164627
63	0x3d0a3196	0.033738695

output_layer.weight f4 [4, 64]
0	0x3def7887	0.11692911
1	0xbe2e2ab1	-0.17008473
2	0x3db26812	0.08711256
3	0xbcb105a0	-0.021609128
4	0xbe661210	-0.22467828
5	0x3e37a757	0.17934929
6	0xbcb0712c	-0.02153834
7	0x3c03f843	0.008054796
8	0x3d3e2a04	0.046426788
9	0x3c95cb42	0.018285397
10	0x3e1064d6	0.14100966
11	0x3d92aaa5	0.07161454
12	0xbd1a353f	-0.037648436
13	0x3e3fa5d8	0.18715608
14	0x3d1f79b8	0.03893444
15	0x3ed48c69	0.41513374
16	0x3e091770	0.13387847
17	0xbbaf02a7	-0.0053408924
18	0xbe096116	-0.13415942
19	0x3e3545b9	0.17702378
20	0x3ea11bc5	0.314665
21	0xbb199215	-0.002343302
22	0xbdc49605	-0.095989265
23	0x3db68beb	0.08913406
24	0x3daed05f	0.085358374
25	0x3b2a5726	0.0025991886
26	0xbe0efd74	-0.13963872
27	0xbd32ca7e	-0.043650143
28	0xbdd41ca4	-0.10357025
29	0x3e21d97a	0.15805617
30	0x3dba4d6e	0.090968
31	0xbdfcdc33	-0.12346687
32	0x3d440b7f	0.047862526
33	0xbdd69dc7	-0.104793124
34	0x3dbf755b	0.09348556
35	0x3e483e5a	0.19555035
36	0x3e58580c	0.21127337
37	0x3e9169e7	0.2840111
38	0xbdaf03c0	-0.08545637
39	0x3eea4726	0.45757407
40	0xbbdb11f8	-0.0066854917
41	0x39958887	0.00028521215
42	0x3e1a8852	0.15091065
43	0x3bd60403	0.00653124
44	0xbcee2858	-0.029071972
45	0xbe2e1cff	-0.17003249
46	0x3e1688c6	0.14700612
47	0xbe3e6c28	-0.18595946
48	0x3e4aba57	0.19797646
49	0xbe4afbdb	-0.19822638
50	0xbd99997b	-0.07499977
51	0xbe0c9794	-0.13729697
52	0x3df8deaa	0.12151845
53	0x3e0445f5	0.12917311
54	0xbe0cc8b2	-0.13748434
55	0x3dc555cc	0.09635505
56	0x3dbfd25e	0.09366296
57	0xbe1d36f6	-0.15352997
58	0xbdbf028d	-0.093266584
59	0x3e05ee6b	0.1307923
60	0xbb1e4b8b	-0.0024153914
61	0x3e2b7f67	0.16747819
62	0xbcb79e67	-0.0224144
63	0x3e46e9ef	0.19425176
64	0xbc9c1ad4	-0.019055761
65	0x3e40f428	0.18843138
66	0x3e99a890	0.30011415
67	0xbdc130c0	-0.094331264
68	0xbdb9563e	-0.090496525
69	0x3a0a4b1a	0.0005275473
70	0x3da72b3c	0.08162543
71	0xbe48c398	-0.19605863
72	0x3bae4ff4	0.0053195897
73	0x3c4eb55a	0.01261648
74	0x3e463805	0.19357307
75	0x3dddfb65	0.10838965
76	0xbdb50faf	-0.08840882
77	0xbdaad116	-0.08340661
78	0xbe80f258	-0.25184894
79	0xbe222d7b	-0.15837662
80	0x3e3280ba	0.17431918
81	0x3daa35f4	0.08311072
82	0x3e058f39	0.13042916
83	0xbd4d43f8	-0.05011365
84	0xbb45b373	-0.0030166775
85	0x3df674ae	0.12033974
86	0xbd07f292	-0.033190317
87	0xbd9a495b	-0.07533523
88	0x3ea63a2a	0.3246625
89	0xbe0a9e30	-0.13536906
90	0x3e96a724	0.29424393
91	0xbd869827	-0.065719895
92	0xbdf95509	-0.12174422
93	0xbe760a2d	-0.24027319
94	0x3d8af567	0.06785088
95	0x3d90fe5c	0.07079765
96	0xbdd98b1d	-0.10622237
97	0xbd387e0e	-0.04504209
98	0xbcde2da4	-0.027121373
99	0xbeb120fe	-0.34595484
100	0xbe0cbaf7	-0.13743196
101	0xbd758b46	-0.059947275
102	0xbe2fc24a	-0.17163959
103	0xbda504d9	-0.08057565
104	0xbe24e6c4	-0.16103655
105	0x3e71ed75	0.23625739
106	0x3cf0a435	0.029375175
107	0xbe70445c	-0.23463577
108	0x3db64f82	0.08901884
109	0xbde1fc4d	-0.11034451
110	0x3db9da12	0.09074797
111	0x3df3692c	0.11885294
112	0xbdbe00b4	-0.09277478
113	0x3bb51c37	0.005527045
114	0xbd809355	-0.06278101
115	0xbb83b3b8	-0.004019227
116	0x3cffcc20	0.031225264
117	0xbe33974c	-0.17538184
118	0x3e77998c	0.24179667
119	0xbe70090e	-0.23440954
120	0xbda14dfb	-0.07876202
121	0xbe282506	-0.16420373
122	0xbe344700	-0.1760521
123	0xbd8c732c	-0.06857905
124	0x3e520daa	0.20513025
125	0xbd2e927b	-0.042620163
126	0xbde42e20	-0.1114161
127	0x3e726569	0.23671497
128	0x3e3f45fc	0.1867904
129	0xbe24bad3	-0.16086893
130	0xbe247801	-0.16061403
131	0x3d8a00f2	0.067384616
132	0x3e048202	0.12940219
133	0x3de79dd1	0.11309398
134	0x3e3d96b4	0.1851452
135	0xbddeaeb6	-0.10873167
136	0xbe09e4ef	-0.13466237
137	0x3b5af429	0.003340969
138	0xbe3c320e	-0.1837847
139	0xbd001bb7	-0.03127643
140	0x3e861cf5	0.26193967
141	0xbd811e7a	-0.06304641
142	0xbd0ed702	-0.034873016
143	0x3c787ed3	0.015166956
144	0x3e02eb86	0.12785158
145	0xbbd3586e	-0.0064497506
146	0x3e08ed76	0.13371834
147	0xbce588b1	-0.028019281
148	0xbe4d0c26	-0.20024166
149	0x3dc52909	0.096269675
150	0x3de1d1e4	0.110263616
151	0x3ea91e80	0.33031082
152	0x3e4bd868	0.19906771
153	0x3d7748da	0.06037221
154	0x3e8e3ab8	0.27779174
155	0x3cb1f598	0.021723554
156	0x3ea3c54b	0.3198646
157	0x3e0586ef	0.13039754
158	0xbd9aa6b3	-0.075513266
159	0x3e022164	0.1270805
160	0xbe3f3c0a	-0.18675247
161	0xbe921f4d	-0.28539506
162	0xbc4fbb9c	-0.012679007
163	0x3d3857ea	0.045005716
164	0x3e3551df	0.17707013
165	0xbe2b8b8d	-0.16752453
166	0x3c93fcd9	0.018064903
167	0xbd9011ba	-0.07034631
168	0x3d98aa87	0.074544005
169	0xbd05e013	-0.032684397
170	0xbd5c8b38	-0.053843707
171	0xbac1d8c4	-0.0014789333
172	0xbddce71a	-0.107862666
173	0xbe14fee7	-0.14550363
174	0x3e02b653	0.12764864
175	0x3e29ebb2	0.16593817
176	0xbe4ebc36	-0.20188984
177	0x3e734da3	0.23760085
178	0xbd186ca9	-0.037213
179	0xbd9cf731	-0.076643355
180	0xbddaf506	-0.10691266
181	0xbdf2fe16	-0.11864869
182	0xbdf13dfb	-0.117794
183	0x3e304e2a	0.17217317
184	0xbe10b0fe	-0.14130017
185	0x3ea8b987	0.32954046
186	0x3e08b326	0.1334959
187	0x3dca8166	0.09887962
188	0x3d54a6ab	0.05191676
189	0x3da049d0	0.078265786
190	0xbd41bdb6	-0.047300063
191	0xbc7ea3ef	-0.0155420145
192	0xbe0931b5	-0.13397868
193	0x3e6d9908	0.23202908
194	0xbdc52697	-0.09626501
195	0x3c80ba78	0.015713915
196	0x3dccfc4d	0.1000906
197	0x3e498006	0.19677743
198	0xbe37b49d	-0.17939992
199	0xbd93e5d6	-0.07221572
200	0x3dc52098	0.096253574
201	0xbdada34c	-0.08478412
202	0x3e0ea5fd	0.13930507
203	0x3dbbd351	0.09171165
204	0x3e7c0cf4	0.24614316
205	0x3e03bc8f	0.12864898
206	0x3d69cc85	0.05707981
207	0xbd2c857a	-0.04211948
208	0xbd2d803b	-0.04235862
209	0xbdde7a02	-0.10863115
210	0xbe0d38b9	-0.13791169
211	0x3c6cad4b	0.014445613
212	0x3e28802e	0.16455147
213	0xbd5e24d0	-0.054234326
214	0xbd5fab29	-0.05460659
215	0x3b82d493	0.003992626
216	0x3be44e68	0.0069673546
217	0x3e847b6b	0.2587541
218	0x3e3be528	0.18349135
219	0x3dbd20f1	0.09234799
220	0xbda00286	-0.07812981
221	0xbcd2938e	-0.025705125
222	0xbc782fda	-0.015148127
223	0x3de4a49d	0.1116421
224	0xbb05f487	-0.002043994
225	0xbdbb0de5	-0.091335095
226	0x3db520f1	0.08844174
227	0x3dd3a9f4	0.1033515
228	0x3e53fda6	0.20702228
229	0xbe150ab0	-0.14554858
230	0x3eaca667	0.33720705
231	0x3d20d4ec	0.039265558
232	0xbe584a45	-0.21122082
233	0xbe9cb675	-0.30607954
234	0xbe08b05c	-0.13348526
235	0x3e36c0af	0.1784694
236	0xbdf548dc	-0.119767874
237	0xbdbecac4	-0.09316018
238	0xbe8e31be	-0.27772325
239	0xbb894c30	-0.0041899905
240	0x3e9756ee	0.2955851
241	0x3d8a6612	0.067577496
242	0x3e268bdd	0.16264291
243	0xbc638751	-0.013887242
244	0x3d970b9e	0.07375263
245	0x3e7acd3d	0.24492355
246	0x3e45daca	0.19321743
247	0x3e3a4552	0.18190506
248	0x3e1e5b89	0.15464605
249	0xbdb48364	-0.08814123
250	0xbdbb975f	-0.09159731
251	0xbd22971f	-0.0396949
252	0x3e11e5d0	0.14247823
253	0x3dd2ee5d	0.102993704
254	0x3d82d6da	0.06388636
255	0x3ddad2a1	0.106847055

output_layer.bias f4 [4]
0	0xbdec3af3	-0.11534681
1	0x3e0b782b	0.13620059
2	0x3e02e445	0.1278239
3	0x3ceaa5db	0.02864354
